…
) is not supported. Currently, only the following modules are supported: `torch.nn.Linear`, `torch.nn.Embedding`, `torch.nn.Conv1d`, `torch.nn.Conv2d`, `torch.nn.Conv3d`, `transformers.pytorch_utils.Conv1D`, `torch.nn.MultiheadAttention.`.
2025-04-03 13:07:05,349 - agent.sdf - ERROR - Error during fine-tuning: Got unexpected arguments: {'token_type_ids': tensor([0, 0, 0, 0])}
2025-04-03 13:07:05,350 - agent.sdf - ERROR - Error in fine-tuning agent: Got unexpected arguments: {'token_type_ids': tensor([0, 0, 0, 0])}
2025-04-03 13:15:12,289 - agent.sdf - ERROR - Error setting up PEFT: Target modules {'query_key_value'} not found in the base model. Please check the target modules and try again.
2025-04-03 13:15:12,298 - agent.sdf - ERROR - Fallback approach also failed: Target module OPTSdpaAttention(
  (k_proj): Linear(in_features=1024, out_features=1024, bias=True)
  (v_proj): Linear(in_features=1024, out_features=1024, bias=True)
  (q_proj): Linear(in_features=1024, out_features=1024, bias=True)
  (out_proj): Linear(in_features=1024, out_features=1024, bias=True)
) is not supported. Currently, only the following modules are supported: `torch.nn.Linear`, `torch.nn.Embedding`, `torch.nn.Conv1d`, `torch.nn.Conv2d`, `torch.nn.Conv3d`, `transformers.pytorch_utils.Conv1D`, `torch.nn.MultiheadAttention.`.
2025-04-03 13:15:12,299 - agent.sdf - ERROR - Error in fine-tuning agent: Target module OPTSdpaAttention(
  (k_proj): Linear(in_features=1024, out_features=1024, bias=True)
  (v_proj): Linear(in_features=1024, out_features=1024, bias=True)
  (q_proj): Linear(in_features=1024, out_features=1024, bias=True)
  (out_proj): Linear(in_features=1024, out_features=1024, bias=True)
) is not supported. Currently, only the following modules are supported: `torch.nn.Linear`, `torch.nn.Embedding`, `torch.nn.Conv1d`, `torch.nn.Conv2d`, `torch.nn.Conv3d`, `transformers.pytorch_utils.Conv1D`, `torch.nn.MultiheadAttention.`.
2025-04-03 13:22:12,361 - agent.sdf - ERROR - Error setting up PEFT: Target modules {'query_key_value'} not found in the base model. Please check the target modules and try again.
2025-04-03 13:22:12,377 - agent.sdf - ERROR - Fallback approach also failed: Target module OPTSdpaAttention(
  (k_proj): Linear(in_features=1024, out_features=1024, bias=True)
  (v_proj): Linear(in_features=1024, out_features=1024, bias=True)
  (q_proj): Linear(in_features=1024, out_features=1024, bias=True)
  (out_proj): Linear(in_features=1024, out_features=1024, bias=True)
) is not supported. Currently, only the following modules are supported: `torch.nn.Linear`, `torch.nn.Embedding`, `torch.nn.Conv1d`, `torch.nn.Conv2d`, `torch.nn.Conv3d`, `transformers.pytorch_utils.Conv1D`, `torch.nn.MultiheadAttention.`.
2025-04-03 13:22:12,377 - agent.sdf - ERROR - Error in fine-tuning agent: Target module OPTSdpaAttention(
  (k_proj): Linear(in_features=1024, out_features=1024, bias=True)
  (v_proj): Linear(in_features=1024, out_features=1024, bias=True)
  (q_proj): Linear(in_features=1024, out_features=1024, bias=True)
  (out_proj): Linear(in_features=1024, out_features=1024, bias=True)
) is not supported. Currently, only the following modules are supported: `torch.nn.Linear`, `torch.nn.Embedding`, `torch.nn.Conv1d`, `torch.nn.Conv2d`, `torch.nn.Conv3d`, `transformers.pytorch_utils.Conv1D`, `torch.nn.MultiheadAttention.`.
2025-04-03 13:45:55,109 - agent.sdf - ERROR - Error during fine-tuning: index out of range in self
2025-04-03 13:45:55,115 - agent.sdf - ERROR - Error in fine-tuning agent: index out of range in self
…
